models/computer 2.0/khum_puter.tflite (tflite, 206976 bytes, 9 tensors)

arith.constant f4 [1, 32]
00000000: 48b2 c2be 006c 773e ad6d 103e d212 cfbe
00000010: 25aa 4cbd 8aa4 f83d cc3a 263d fd86 09bc
00000020: 1d60 e33d 6483 97bc 70c7 e73d 138e a73d
00000030: 97c0 363e 7f96 b63d cc83 df3d af27 b7be
00000040: da9e 053e c972 b3be 53bf ccbc 2b01 b2be
00000050: 77aa 233e 9f2f bcbe 87bb 023e 40a1 bdbe
00000060: ad31 193e dbee 523e 1a9f bdbe b873 7a3e
00000070: 4210 a63d 922a e03d 12e0 483e da17 423e
-0.38026643 0.24162292 0.14104338 -0.40444046 -0.04996695 0.12140758 0.040583417 -0.008394
0.111023165 -0.01849527 0.113173366 0.081813954 0.17846905 0.089154236 0.1091381 -0.35772464
0.13048878 -0.35048512 -0.024993574 -0.34766516 0.15982996 -0.36755082 0.12766849 -0.37037086
0.14960356 0.20598929 -0.37035447 0.24458206 0.0810857 0.1094562 0.19616726 0.18954411

arith.constant1 f4 [32, 32]
00000000: 1f0e a0bc de11 2cbe 1999 bf3d 43a9 6dbc
00000010: 66da 093c fc49 87bc 3599 453d 989a b1bd
00000020: aa45 0b3e f84c 473d e700 c7bd 1c35 5e3d
00000030: 3524 1f3e bea9 8d3d b9bd b4bd 0bb9 f2bd
00000040: 512b 073e 0dfd c43d eb85 bbbb b42e fc3c
00000050: a351 f73c 0d61 55be 3acb c13c 4a03 bbba
00000060: 6037 2b3e c525 57bb 0859 6f3d f027 0cbe
00000070: cb30 273e 5768 a63d 1bcf 06be 5de7 1f3e
00000080: 3ca6 113e be57 0e3e adcd acbd c124 4a3e
00000090: a55d e7bd 3b05 e73d 9155 0dbd 5bbe a63d
000000a0: f375 02bc 2c21 d1bd d8f9 953d 677d 1f3e
000000b0: 3958 00be fdc2 b63c 180d 67bd 0661 82bd
000000c0: 6610 a1bc 1697 2d3d 4b12 f0bc d102 a4bd
000000d0: 74e7 89bc b175 1bbd 52aa 04be a90f 0ebe
000000e0: 92b7 0ebc 2d41 1b3e faad c93d 5f26 613e
000000f0: 1c8a 8fbd 3e1b 2fbe d123 213e 94b7 d83d
00000100: 520a f1bd ab91 323e 1a50 78bd 6770 2c3e
00000110: db40 b4bc fbe8 06bd 8343 3d3e 30ce 0c3e
00000120: 8248 8fbc 2c8d d3bd 6a00 6dbd a8bf 803d
00000130: 77d1 53bd a5f7 24bd af72 9abd bcd5 143e
00000140: f7bd 1c3e 441b 1abd d45c 5a3c c80d e43b
00000150: 7ccb 0fbe fe11 153e e55d f03d 7c3e ccbd
00000160: d270 f53d 92ca 1cbe 3bf4 383e 8c54 3d3e
00000170: 9ca3 1fbd 61e7 b9bd 810a d6bc a1ca ebbc
00000180: 4a9b 3abe cd23 31be 7343 073d f8f0 44be
00000190: f7af bb3d 44b5 ae3d 32e4 b4bd 8372 b03d
000001a0: 04a9 933b 4f1c 013c 91b2 80bd f66c 09be
000001b0: 892a 6e3c 0281 5abd b54a 08bb 40d0 bcbd
000001c0: 8aca 063e fcb2 bfbd 8057 66bc a3fb e6bc
000001d0: c4b7 203e 1eb4 3b3d 0f0b d3bd a6f4 4fbd
000001e0: 6a21 6c3c 705f 733d 74ce 52be 2f7e df3d
000001f0: 0772 c8bd 0699 2f3e 9f00 a23c 8466 da3b
00000200: 6be4 08be eda7 413e b33e 903d accd a43d
00000210: 6bd1 26be 21c8 ae3c 72b0 183d b465 2cbc
00000220: 552b 17be 241c 813c ec36 81bd 9f17 51bd
00000230: 00f0 10be 2ad8 76bd 1d3f 263d 8961 1cbd
00000240: 7729 df3d 3701 20be bde4 5d3d b805 273d
00000250: 2322 69bd 0ee5 253c 128b cabc c052 bd3d
00000260: e97c 1d3e 7037 2a3e 5bf1 35bd e272 1dbe
00000270: 9980 c13d daa2 bb3d 87a5 a43d 83b2 103d
00000280: 9373 1f3d eba7 60bd 8830 88bc 5b0a 523e
00000290: 1b0c 083e 91f4 88bd 5b1a 0a3d f70a 17bd
000002a0: d0d0 14be c856 51bd d7c6 e8bc 3f7e 2b3e
000002b0: a9b0 d0bd f83f 393e e4b8 81bc 8cf6 8f3d
000002c0: b868 b7bd c83f b2bc b665 3cbd 9ef1 003e
000002d0: 30eb 31be 9536 7abc a405 813d e03f 1d3d
000002e0: c3f7 a63d 3c48 46bd 64ce 48bd 24d7 603e
000002f0: 5574 2ebe 57a6 a6bd ed42 3a3d 6e71 343d
00000300: 2c60 0a3e 4cda 17be 47cc b0bd 6e3f 753d
00000310: 703b 8f3c a75d a93d 9b49 a93d de05 d7bd
00000320: b996 07be 88b4 3a3e 1949 10be a1a6 02be
00000330: 9cd5 c73d 1935 7dbd 9823 35be bf62 a73c
00000340: 4c4f 413d 6029 2bbd 067d 27bd 4e19 a63d
00000350: 85b2 d7bd 2328 b5bd ced6 1e3e 0763 863c
00000360: cb9f bbbd c5f9 8c3d fc3e 393e 8840 083e
00000370: 5150 25be 588b 73bd 987f 8dbd e67a 413d
00000380: a118 62bd 7121 303e 1346 ccbd bc34 49bc
00000390: 9030 733d 2aa9 1f3e 5ddb 8e3b ae3e 4e3d
000003a0: 657d 613d d946 40bd 685d ad3d ccb7 e0bd
000003b0: cbf5 abbd 825a 7fbd 8fe4 00be 2b4a 91bd
000003c0: 1b98 58bc 6b58 023e 0de4 b7bc 49f1 f33d
000003d0: 986c 893c 883b d3bc a727 85bc 0b3d aa3d
000003e0: 709a 383c cedd a83d d3b7 3bbd 0ed4 88bd
000003f0: 2206 5d3d e67d ba3d acdd 7c3c 7798 d33d
-0.019537983 -0.16803691 0.09355373 -0.014505687 0.008413887 -0.01651477 0.048241813 -0.086720645
0.13600793 0.048657387 -0.09716969 0.054249868 0.15541156 0.069171414 -0.08825249 -0.118517004
0.13200118 0.09618578 -0.0057227514 0.030783989 0.030190295 -0.20837803 0.023656476 -0.0014267948
0.16720343 -0.003282891 0.058434516 -0.1368711 0.16327207 0.0812537 -0.13164942 0.15615602
0.1422357 0.13900658 -0.08437667 0.19740583 -0.11297158 0.112802945 -0.03450543 0.08141776
-0.007962692 -0.10211405 0.073230445 0.15575181 -0.12533654 0.022309775 -0.05640897 -0.06366162
-0.01966114 0.042380415 -0.029305598 -0.0800835 -0.016833998 -0.037954036 -0.12955597 -0.13873161
-0.008710759 0.15161581 0.098476365 0.21987294 -0.07008764 -0.17100236 0.15736319 0.1058189
-0.117695466 0.1743838 -0.060623266 0.16839753 -0.022003582 -0.03293703 0.18482785 0.1375053
-0.01749063 -0.10329661 -0.057861723 0.062865555 -0.051713433 -0.040275235 -0.075414054 0.14534658
0.15306841 -0.03762366 0.013327796 0.0069596507 -0.14042467 0.14557645 0.11736659 -0.099728554
0.119844094 -0.1531165 0.18061917 0.18489283 -0.03897439 -0.09077335 -0.026128056 -0.028783144
-0.182233 -0.17298813 0.03302331 -0.19232547 0.09164422 0.085306674 -0.08832587 0.086155914
0.004506232 0.007880284 -0.06284059 -0.13420472 0.014536508 -0.053345688 -0.0020796482 -0.09219408
0.131632 -0.093603104 -0.014058948 -0.028196162 0.15695101 0.04582607 -0.10304844 -0.050770424
0.014412263 0.05941719 -0.20586568 0.109127395 -0.09787374 0.17148218 0.019775687 0.006665053
-0.13368385 0.18911715 0.07043209 0.08047041 -0.16290824 0.021335663 0.037277646 -0.010522295
-0.14762624 0.015760489 -0.06309304 -0.051047917 -0.14154053 -0.060264744 0.040587533 -0.038178954
0.10896581 -0.15625463 0.05417322 0.04077694 -0.05691732 0.010125412 -0.024724517 0.09244299
0.1537968 0.1662271 -0.044419628 -0.15375856 0.09448356 0.09161921 0.08039384 0.035326492
0.03892858 -0.05484764 -0.016624704 0.20511763 0.13285868 -0.06687272 0.03371654 -0.03687569
-0.1453278 -0.05110815 -0.028415127 0.16747378 -0.10189945 0.18090808 -0.015835233 0.07029447
-0.089555204 -0.021758929 -0.045995437 0.1259217 -0.17374873 -0.015271802 0.06299904 0.038390994
0.081527255 -0.04840873 -0.049024954 0.2195707 -0.17036565 -0.081371956 0.04547398 0.044053487
0.13513249 -0.14829367 -0.08632713 0.059874944 0.017484397 0.08269816 0.08265992 -0.10499166
-0.1324109 0.1823293 -0.14090385 -0.12758876 0.0975754 -0.061818216 -0.17689359 0.020432828
0.047194764 -0.041787505 -0.040890716 0.08110295 -0.10532097 -0.08845546 0.15511629 0.016404642
-0.091613375 0.06883577 0.18090433 0.13305867 -0.1614392 -0.05945906 -0.06909102 0.047236346
-0.05519927 0.17200257 -0.09974303 -0.012280639 0.059372485 0.15591875 0.0043596462 0.050352745
0.055051226 -0.046942566 0.084650815 -0.109725565 -0.08396491 -0.062342174 -0.12587188 -0.070942245
-0.0132198585 0.12729041 -0.02244761 0.11911256 0.016775414 -0.025785223 -0.01625426 0.08312424
0.0112672895 0.08245431 -0.045829605 -0.06681071 0.053960927 0.091060445 0.01543371 0.10331815

arith.constant2 f4 [32, 1536]
00000000: 9e90 ba3c f031 7b3c cbae af3c 3f74 f7bc
00000010: 004b 7a3c 9942 3c3c 411c 083c ae3f c43b
00000020: 3cc9 e23c ff29 623c 29e2 41bc c173 293b
00000030: a3ef 8b3c 2784 853c 9d30 983a 75dc 0ebc
00000040: fb74 6f3c af71 c2bb be3c 5e3c a8f5 9ebc
00000050: fa0e ecbc e457 8d3c b84e c43c 9234 f23a
00000060: f9ce 833b 4ea8 3cbc 5b91 fabb a0ed b4bc
00000070: add9 513c 526e bcbc 57a7 723c 369c 4f3c
00000080: 583f 7dbc c41b 343c 9247 b6bc 6be2 4d3c
00000090: 3b6c 533b 7388 a63b 152b 223b 6f11 863b
000000a0: 0e29 1ebb eeb3 60ba 1641 563c 314e d93c
000000b0: 1d9b fdbc d673 873c 1595 b0bb 9746 063d
000000c0: d299 b33a f1f4 813c 91df 2e3a 8bda 663c
000000d0: 65c7 d1bc c875 5abb 0112 e03c 0b4a 81bc
000000e0: caa4 21bd 1a40 eabc 8b83 7fbc df38 2f3a
000000f0: 6b50 a13c 1ff3 0cbd cae8 2dbb 5a28 a83a
00000100: 38bf 8c3c 9779 9e3b 7927 4fbb 7182 95bc
00000110: 0650 403d c791 5bbc 39f2 c9bc 8908 b7bc
00000120: 96c4 9b3c c1c5 a83c 16f4 a8bc 5520 b33b
00000130: 0bed 873c 9a66 64bc 13f0 c2bc e48b b03c
00000140: 9e0a d7bc dffa 50bc 0438 bbbc 4f1b e73b
00000150: 2b5c fbbb 0c65 163c cc97 c73c 2656 acbb
00000160: 6e71 063c baf1 f23a 9ca6 ef3b 4429 9bbc
00000170: 36f5 4abc 6ace a2bc eb62 973b 434e 283c
00000180: 5d88 81bb b284 8cba b776 d63c 45ca 203d
00000190: 3144 82bc 84bc 1d3c f3bb b0bb 8bd1 1439
000001a0: 358f b5bc 010b 9f39 44ef ad3c 7e90 c03a
000001b0: 4ec8 1cbb 2542 143d 2b1d 2c3c bca4 23bd
000001c0: c63b cb3c 4f32 36bc 7bc9 a8bc 426a 86bc
000001d0: d453 04bb a568 2ebb a79c 1e3c 5f34 d33c
000001e0: 3a8d 92bb fede 10bc 0fa2 7d3b 59ee b73c
000001f0: cb8f 1f3d 25ef 70bd d3f5 9e3b a613 0f3c
00000200: 7d21 c3bc 99ce 2ebc 7f12 70bc 010e 5c3c
00000210: aaa3 89bc dcf1 c0bb c7d4 443c 69dc cbbc
00000220: 5ed0 38bd d272 8dbc 9011 61bc 8cd7 a2bc
00000230: 139e 2dbc f31b c6bc e650 b53c 88f8 9dbb
00000240: 4afe 42bc 3122 d03c 7dbd b3bc e612 893c
00000250: b8e9 00bd b425 983a 738f a9bc 4a4b de3c
00000260: 8440 0cbd 827c 8a3b faa1 37bc cdc9 41bb
00000270: 5ca0 b03c 9ace 17bd 6ee1 af3c 1290 afbb
00000280: be6a 88ba 3e24 c9ba 151b a53c fb8d cdb9
00000290: 0873 353c 3b80 b0bc badb 05bd 56e9 36bc
000002a0: e527 fcbb c783 7dbc c30e f23c d166 913c
000002b0: 6c09 31bc a061 f8ba d97d 913c bf99 7a3c
000002c0: 7e53 cbbb 4aa4 6a3c a286 1e3c 2bdb d63c
000002d0: 1a25 a93b db0c 14bc f9e3 013a 5318 fdbc
000002e0: 7471 1e3d 2495 49bb ae72 153d a36b cfbc
000002f0: d1dc ffbb f173 8f3c 294a f83c 2604 aabb
00000300: 1dae 183d f193 043c b17f 79bc 9f8f caba
00000310: 42d7 733c e50f 85bc 4ac3 ebbc 0dab abbb
00000320: f65a cdbc 7ba1 053d 1df7 aeba 4064 2dbd
00000330: ddb2 33bc 2a7c 763c ea15 cb3c af27 10bd
00000340: de27 853c e767 89bb 91f4 fabb 3873 1c3c
00000350: 1a72 07bd f96f ca3c f6e3 3fbb 0963 ddbc
00000360: 1fdf f33b 0b29 8e3c d5ad 913c 56d9 eebb
00000370: 8bc8 a93b 01c4 7fbc fff3 043c b77b b5bc
00000380: d0dc 68bc ba14 d6bc d196 ccbc 8fab 0dbb
00000390: 5a8a 863c 7bb9 593c e5b9 b83c 6c29 6abc
000003a0: 636a 4abc 6f2c 59bc d5c8 a0bc a7a4 afbc
000003b0: acb7 b2bc 026c 993c 53f6 b53c afc7 1c3c
000003c0: 3077 02bd 93bc 3a3c 080f 0abd ccc0 ef3b
000003d0: 6185 8abc 63fc 5e3c 4ac7 90bc 4080 413b
000003e0: f0b4 3cbc 75a3 24bc 7ac5 62bc 2732 70ba
000003f0: d9bf 043d 1ce6 2d3c de1a 733b 2b53 08bd
0.022774037 0.01533173 0.021445652 -0.030206798 0.01527667 0.0114904875 0.0083075175 0.0059890365
0.027683847 0.013803958 -0.011833706 0.0025856348 0.017082041 0.016298367 0.0011611168 -0.008719553
0.014615293 -0.0059339623 0.013564287 -0.019404247 -0.028815735 0.017253824 0.023963317 0.0018478802
0.004022476 -0.011514736 -0.0076467223 -0.022085965 0.012808246 -0.023001824 0.014810405 0.012671521
-0.015456997 0.010992948 -0.022250924 0.012566189 0.0032260555 0.005082184 0.0024744917 0.0040914337
-0.0024133357 -0.00085717335 0.013077041 0.026526542 -0.030957753 0.016534727 -0.0053888657 0.032782163
0.0013702458 0.015863867 0.0006670887 0.014090191 -0.025607774 -0.0033334363 0.027352335 -0.015782377
-0.039463796 -0.02859502 -0.015595327 0.00066841947 0.019691667 -0.034411546 -0.0026536458 0.0012829409
0.017181024 0.004836272 -0.003160922 -0.018250676 0.046951316 -0.013401455 -0.024651634 -0.022342937
0.019014638 0.020602109 -0.020624202 0.0054665008 0.016592523 -0.013940478 -0.023796117 0.02155108
-0.02625018 -0.012755125 -0.022853859 0.007052816 -0.0076708994 0.009179365 0.024364375 -0.005259293
0.008205755 0.0018535175 0.0073135626 -0.018940575 -0.012387564 -0.019873817 0.0046199462 0.010272565
-0.0039530233 -0.0010720699 0.026179655 0.0392554 -0.015901657 0.009627465 -0.005393499 0.0001419244
-0.022163013 0.00030335042 0.021232255 0.00146915 -0.0023923102 0.036195893 0.010505001 -0.039952025
0.024808776 -0.011120393 -0.020603886 -0.01640809 -0.0020191567 -0.0026612666 0.0096809035 0.025781808
-0.004472402 -0.008842228 0.003870133 0.02245252 0.03895549 -0.058821816 0.004851082 0.008732712
-0.02381968 -0.010669374 -0.014652847 0.013431073 -0.016801674 -0.005888207 0.012013621 -0.024885373
-0.04512059 -0.017266665 -0.013737097 -0.019878171 -0.01059677 -0.02418325 0.022133302 -0.004820887
-0.011901448 0.025406929 -0.021940941 0.016732644 -0.03147289 0.0011607916 -0.020698285 0.02713551
-0.034241214 0.0042262683 -0.011208052 -0.0029569746 0.02156084 -0.037062265 0.021469798 -0.0053577507
-0.0010407788 -0.0015345884 0.020154515 -0.0003920643 0.011074789 -0.02154552 -0.03268025 -0.01116403
-0.0076951855 -0.015473313 0.029548055 0.017749222 -0.010805469 -0.0018949993 0.017760204 0.015295445
-0.0062050214 0.014321396 0.009675654 0.026227554 0.0051618936 -0.009036268 0.000495493 -0.030895388
0.038682416 -0.003075906 0.03648632 -0.02531988 -0.007808306 0.01751134 0.0303088 -0.005188483
0.037275422 0.008091913 -0.015228198 -0.0015454179 0.014882864 -0.01624293 -0.028779645 -0.0052388967
-0.025067788 0.032624703 -0.0013348792 -0.042331934 -0.010967937 0.015044251 0.024790723 -0.035194095
0.016254362 -0.0041932943 -0.007658549 0.009548955 -0.0330678 0.024711596 -0.0029280162 -0.027024763
0.0074423696 0.017353555 0.017783085 -0.007289092 0.0051813773 -0.015610696 0.008114814 -0.022153718
-0.014212802 -0.02613293 -0.024974259 -0.002161715 0.016423393 0.013288851 0.022549579 -0.014292102
-0.012354466 -0.013255223 -0.019627014 -0.021440817 -0.021816097 0.01872826 0.022212183 0.009569093
-0.031851947 0.011397499 -0.03370574 0.0073166844 -0.016909303 0.013609978 -0.017673153 0.0029525906
-0.011517748 -0.010048737 -0.013841027 -0.0009162747 0.032409523 0.010613944 0.0037094872 -0.03328244

model_8/tf.__operators__.add/AddV2/y f4 [32]
00000000: af07 d2bc ca13 c33c edca 1a3c cb39 a1bc
00000010: 4c90 5c3b d6bf 87bc 9065 d9bb 7058 9c3b
00000020: b1c1 df3c 18e9 7fbc 56cc 453c 55b2 a73c
00000030: 0d2f 21bb 94eb 8ebc 6b71 33bc 0d01 8e3b
00000040: 2232 813c a94b 73bc 7a06 1b3c ef25 81bc
00000050: 29a2 1abc 57c0 b43c 11b1 2dbc 932f be3c
00000060: fc2e 803c c54f 11bc 9bcc 3c3c 9c3c 8b3b
00000070: c2ac a53b 5b30 41bc 1a1b 4dbc 11d1 1dbc
-0.02563843 0.023813147 0.009447795 -0.019680878 0.0033655344 -0.016570967 -0.0066344216 0.0047712848
0.027314039 -0.015619539 0.012072643 0.020470778 -0.0024594695 -0.017446317 -0.010952334 0.0043336214
0.015770976 -0.014849582 0.009461993 -0.015765158 -0.009438076 0.022064371 -0.010601298 0.023216045
0.015647404 -0.008869116 0.011523391 0.0042491686 0.0050559947 -0.011791314 -0.012518669 -0.009632365

model_8/tf.__operators__.add_1/AddV2/y f4 [32]
00000000: 72e7 b4bd 2b25 3abd 1d2a f3ba 9260 c43d
00000010: 5cdf c13d 4809 25bd b14c 513d 6506 cbbd
00000020: 9237 24be 16cd cc3d 89f3 c93c e303 8dbd
00000030: 7cb9 06be b6d0 18be fecd 263d 9cd7 92bd
00000040: 5106 fc3d 8ab0 95bd aef6 8fbd d59a f43d
00000050: 673e 8cbc 4d9d 453d 6131 e13c c9c5 ca3d
00000060: 6c74 e43d c10d 4cbd 19d4 bb3b a46a 74bc
00000070: b32b c8bd 71cb bbbd 08eb 223d 0e9b 613c
-0.08833207 -0.045445602 -0.001855198 0.09588732 0.094664305 -0.040292054 0.05109853 -0.09913329
-0.16036823 0.100000545 0.02465226 -0.06885507 -0.13156694 -0.14923367 0.040723793 -0.071700305
0.12305892 -0.07309063 -0.07029472 0.11943594 -0.0171196 0.048245717 0.027489366 0.09901006
0.11155018 -0.049817804 0.005732071 -0.014918003 -0.0977396 -0.09169663 0.039774925 0.013769878

model_8/tf.math.add_2/Add/y f4 [1, 32]
00000000: 3407 a13c 4b64 ae3b dd12 d7bc caa3 e1ba
00000010: fca4 e43c 4ccb a4bc ccf3 aabc 9ce5 383d
00000020: a02b 603c a024 333c 35a8 09bd 27fe 0a3d
00000030: e10b 5cbd 661d e7bc 188e f6bc 5157 19bd
00000040: f300 6abd 6170 993b 616a eabc 8abc 11bd
00000050: b7aa 7a39 a83a d7bb 687b 95bd 0c3c 86bd
00000060: e206 dcbb ce2e d2bc 5d9f f83b ab90 a23c
00000070: 3a8b c1bc 5ffc b73c 55dc b3bc fb13 d4bc
0.019656755 0.0053220144 -0.026254112 -0.0017214951 0.027910702 -0.02011647 -0.020868205 0.045140848
0.013682276 0.010934025 -0.03360768 0.033933785 -0.053722266 -0.02821226 -0.030097052 -0.037436787
-0.05712981 0.004682586 -0.028615179 -0.035580195 0.00023905454 -0.0065682717 -0.072989285 -0.06554422
-0.0067146877 -0.025657084 0.007587357 0.019844374 -0.023625959 0.022459207 -0.021955648 -0.025888434

model_8/tf.math.add_5/Add/y f4 [1, 32]
00000000: 1768 893e 2976 a93d bde8 403d 1ddd 843e
00000010: a33e 213d 903d 023d ee4a d53c fdac cebd
00000020: 4615 2a3d 0e0b 52bd 59aa 113d 9f4c 633d
00000030: 2f21 db3d 558e 8cbd 934f 823d 9927 8f3e
00000040: c466 493d 19bb 8c3e 5ef9 b9bd 097d 803e
00000050: 94bb 563d af5f 823e 2239 313d c8e4 813e
00000060: 83da 3b3d aff1 c03d a9b6 8e3e 43a9 7a3d
00000070: 45ea edbd 9182 47bd 06b8 923d 9e87 213d
0.26837227 0.082744904 0.047096957 0.25949946 0.039366376 0.03179699 0.026036706 -0.10091589
0.041524194 -0.051280074 0.035562847 0.055492993 0.10699689 -0.06863085 0.06362834 0.27959898
0.04917027 0.27486494 -0.09080766 0.25095394 0.052424982 0.25463626 0.043267377 0.2536986
0.045862686 0.094210975 0.27873734 0.061196577 -0.11616949 -0.048708502 0.07164006 0.039435975

model_8/tf.math.multiply_10/Mul/y f4 [1, 32]
00000000: 77f3 833f 4e00 823f d5fe 7e3f 6fb1 853f
00000010: cb1a 7e3f 5b37 7a3f dd5c 7a3f d7ae 803f
00000020: 3323 823f 82a8 833f c9e1 733f e916 823f
00000030: e518 6f3f 0f0c 6b3f 0ff0 793f ce82 733f
00000040: 9e0c 683f 378b 7c3f 66dd 6f3f 7ad9 763f
00000050: 4eba 753f 3e0d 833f 20dc 713f adc9 6f3f
00000060: 856e 803f 6c0b 7e3f 41d7 853f a99c 863f
00000070: 34d1 7a3f 125f 893f abc2 7a3f 8660 783f
1.0308675 1.0156343 0.9960759 1.0444773 0.9925963 0.97740716 0.9779795 1.0053357
1.0166992 1.02858 0.95266396 1.0163242 0.9339736 0.91815275 0.97631925 0.9512147
0.9064425 0.98649925 0.936972 0.9642559 0.95987403 1.0238416 0.9447651 0.9366711
1.0033728 0.9923618 1.0456315 1.0516559 0.9797547 1.0732138 0.9795329 0.97022283

model_8/tf.math.multiply_22/Mul/y f4 [1, 32]
00000000: 3296 a83f 070b 903f cec1 893f dc2c a43f
00000010: bc93 853f 6ef2 863f ab9f 833f 324d 683f
00000020: 5bf1 8b3f 97e4 6e3f aac5 863f f265 883f
00000030: c179 8f3f e5d8 773f f5fa 8a3f 8370 a93f
00000040: 2f1f 8c3f c30c aa3f 42ae 643f f298 a23f
00000050: abc9 883f d171 a23f a022 893f c5b0 a23f
00000060: 6880 873f f87e 8f3f 8038 a73f ad4c 8a3f
00000070: 1025 733f c5fd 7a3f f0d8 8a3f b25e 8a3f
1.3170836 1.1253365 1.076227 1.282619 1.043571 1.0542734 1.0283102 0.9074279
1.0933031 0.9331755 1.0529072 1.0656111 1.1209031 0.9681533 1.0857836 1.3237461
1.0947016 1.3285145 0.89328396 1.2702925 1.0686544 1.2690984 1.0713692 1.2710196
1.0586061 1.1210623 1.3064117 1.080465 0.9497843 0.9804347 1.0847454 1.0810149
