models/megan/megan.tflite (tflite, 206976 bytes, 9 tensors)

arith.constant f4 [1, 32]
0	0x3e059d1b	0.13048212
1	0x3aba6b80	0.0014222711
2	0x3d3a9993	0.045556616
3	0x3e49151d	0.1963696
4	0xbbae42ac	-0.0053180065
5	0x3c973886	0.01845957
6	0xbea29b0a	-0.3175891
7	0xbe9a3229	-0.30116394
8	0xbcc7e094	-0.02439908
9	0xbe9a4bcd	-0.30135956
10	0x3c6dfe3c	0.014525946
11	0xbea94d09	-0.33066586
12	0x3dbc33d1	0.09189571
13	0x3d8cfb2c	0.06883845
14	0x3dc9fb9d	0.098624445
15	0xbc5d13f2	-0.013493525
16	0x3d3bf6f0	0.045889795
17	0xbea74166	-0.32667083
18	0xbeaba455	-0.33523813
19	0x3dddeb80	0.10835934
20	0xbea8f67f	-0.33000562
21	0x3db87542	0.0900674
22	0xbea91d59	-0.33030203
23	0x3d568982	0.05237723
24	0x3e166beb	0.14689605
25	0x3e359166	0.17731246
26	0xbd3ab8fa	-0.045586564
27	0x3e039c7c	0.12852663
28	0x3e09a9ed	0.13443728
29	0xbea614f5	-0.32437864
30	0x3d096a77	0.0335488
31	0x3e3c3c52	0.18382385

arith.constant1 f4 [32, 32]
0	0x3e0bb8fa	0.13644782
1	0x3de65ef4	0.112485796
2	0xbe21bdcc	-0.15795058
3	0xbe0aad25	-0.13542612
4	0xbd6fb048	-0.058517724
5	0x3da1bcf0	0.07897365
6	0x3c7e7b60	0.015532345
7	0x3d76cef6	0.060255967
8	0x3d6a25c4	0.057164922
9	0x3e05bccc	0.13060302
10	0xbd90e16a	-0.07074244
11	0x3d9d66d2	0.07685627
12	0xbd76b073	-0.06022687
13	0x3c85d50a	0.016336937
14	0x3dfa132c	0.12210688
15	0x3d706ce1	0.058697585
16	0xbdbe1505	-0.09281353
17	0xbbd83f61	-0.006599352
18	0x3de0efe6	0.10983257
19	0xbdd33139	-0.10312123
20	0x3e491f5c	0.19640869
21	0x3c928fca	0.01789083
22	0x3d3ab329	0.045581017
23	0x3a5eaa08	0.00084939646
24	0xbd94887c	-0.07252595
25	0xbd942d7a	-0.072352365
26	0x3d89cedc	0.067289084
27	0xbc43cc0c	-0.011950504
28	0x3e0cc17e	0.13745686
29	0x3d33a9ef	0.043863233
30	0xbe356792	-0.1771529
31	0x3b9ea2dc	0.0048411917
32	0x3d99a295	0.07501713
33	0x3d45075e	0.04810273
34	0xbdb8564e	-0.09000836
35	0xbde64763	-0.11244085
36	0xbd1ec0c9	-0.038758073
37	0xbceff794	-0.02929286
38	0xbdf6cb11	-0.120504506
39	0xbe3af126	-0.18256053
40	0x3d8d1d5e	0.06890367
41	0xbd6a70bd	-0.05723642
42	0xbe067998	-0.13132322
43	0xbd0c5ad8	-0.034266323
44	0xbdffcb97	-0.124900036
45	0xbc4209fb	-0.0118432
46	0x3d0ebafa	0.034846283
47	0x3e151bab	0.14561336
48	0x3d6b5d42	0.057461984
49	0x3e2a7c5c	0.16649002
50	0xbd4446c9	-0.04791907
51	0x3d251fcf	0.04031354
52	0xbcf96aff	-0.030446528
53	0x3dcc00b6	0.09961073
54	0x3e08d2fd	0.13361736
55	0x3c52bf41	0.012862981
56	0x3e081e18	0.1329273
57	0xbe051bfd	-0.12998958
58	0x3dbd9de4	0.09258631
59	0xbccb9112	-0.024849448
60	0x3d9329d1	0.0718571
61	0xbcf6ee37	-0.030142887
62	0x3d7b8eaf	0.06141537
63	0xbe042cda	-0.12907735
64	0xbdb643e9	-0.088996716
65	0xbdc8a1e4	-0.09796503
66	0xbe18a052	-0.14904907
67	0xbda3c656	-0.07996814
68	0xbe150c37	-0.14555441
69	0xbe3e50c8	-0.18585503
70	0x3dc79edc	0.09747097
71	0xbcae133f	-0.021249412
72	0xbddd0605	-0.10792164
73	0xbcb066bd	-0.021533364
74	0x3e004256	0.12525305
75	0xbddc1273	-0.107457064
76	0xbdd3af79	-0.10336203
77	0x3d7794ee	0.060444765
78	0x3d6ca925	0.057778496
79	0xbd0d3615	-0.034475405
80	0x3d7b3b47	0.06133583
81	0xbe0100b5	-0.12597926
82	0xbd24827a	-0.040163495
83	0x3e0fd79d	0.14047094
84	0xbd8e7e21	-0.06957651
85	0x3d995b4f	0.07488119
86	0x3df886bf	0.12135076
87	0x3e4707a8	0.19436514
88	0xbd8a7226	-0.06760053
89	0xbde80305	-0.11328701
90	0x3e161a04	0.14658362
91	0x3d6655e8	0.05623427
92	0xbc9b8b3e	-0.018987294
93	0xbe1532d6	-0.14570174
94	0x3dd7c034	0.10534707
95	0xbd29423a	-0.041322924
96	0x3da5185c	0.08061287
97	0x3e162ca8	0.14665473
98	0xbd179771	-0.03700966
99	0x3d01e061	0.031708125
100	0x3dba6f59	0.09103269
101	0xbe0ee0a7	-0.13952886
102	0xbe155fea	-0.1458737
103	0xbe23de23	-0.16002707
104	0x3dfdbc22	0.12389399
105	0xbe05341e	-0.13008162
106	0x3e5a4727	0.21316205
107	0x3d98804b	0.07446345
108	0x3b3e76b0	0.0029062442
109	0x3b4c0a99	0.0031134246
110	0xbc90a8a9	-0.017658548
111	0xbd871404	-0.065956146
112	0xbd699f0f	-0.057036456
113	0xbcdba6db	-0.026812961
114	0x3d9d68a5	0.07685975
115	0xbd734b66	-0.059398077
116	0x3e41e1d8	0.18933809
117	0x3b7ad53e	0.0038274075
118	0x3d4adf96	0.049529634
119	0x3e01b17c	0.12665361
120	0x3dfd0135	0.12353746
121	0xbdbfa5d8	-0.09357804
122	0xbdf9ae36	-0.12191431
123	0xbdb63ac1	-0.08897925
124	0x3d891d07	0.0669499
125	0xbe22067a	-0.15822783
126	0x3e23d5ec	0.15999573
127	0xbe08e89f	-0.13369988
128	0x3d53675f	0.051612254
129	0xbe1b94c6	-0.15193471
130	0xbc8906bf	-0.01672685
131	0xbe002385	-0.1251355
132	0x3c81ff41	0.015868785
133	0x3dbe52a3	0.092931055
134	0x3deec33f	0.11658334
135	0x3dc9db68	0.098563015
136	0xbddfde2d	-0.109310485
137	0xbda3b4f4	-0.079934984
138	0x3d2d2640	0.042272806
139	0x3d850eba	0.064969495
140	0xbc738fe7	-0.014865852
141	0xbc0af638	-0.008481555
142	0xba7254bf	-0.00092441955
143	0x3d7e01f3	0.062013578
144	0x3d271d77	0.040799584
145	0xbe1792d5	-0.14802106
146	0xbcf675d0	-0.030085474
147	0xbbbf4d2e	-0.005838058
148	0x3db57c85	0.08861641
149	0xbc908f95	-0.01764659
150	0xbe019f55	-0.12658437
151	0x3e08120f	0.13288139
152	0xbd32f7e3	-0.043693434
153	0xbdb0f84f	-0.08641111
154	0xbde97f01	-0.11401177
155	0xbdfa6a30	-0.12227285
156	0xbd856015	-0.06512467
157	0xbdca2e57	-0.0987212
158	0xbe0d79f3	-0.13816051
159	0xbdafe1f5	-0.0858802
160	0xbd86f230	-0.06589162
161	0xbe060d68	-0.13091052
162	0xbd51e301	-0.05124188
163	0xbde3752a	-0.11106332
164	0x3dbfb91f	0.09361481
165	0xbb85ca2a	-0.0040829377
166	0x3cbf0bcf	0.02332106
167	0xbd93dea7	-0.07220202
168	0x3d83a263	0.06427457
169	0xbd61ea6a	-0.055155195
170	0xbde45cf8	-0.11150545
171	0xbd077899	-0.033073995
172	0x3e17bcce	0.14818117
173	0xbe0c0c2d	-0.1367652
174	0xbd9df5f9	-0.07712931
175	0xbdef1356	-0.1167361
176	0x3db0ec7e	0.08638857
177	0x3e3a91d3	0.1821969
178	0x3d18dcaf	0.037319835
179	0x3cefc8de	0.029270586
180	0x3cfc8ef7	0.03082989
181	0x3c88c41a	0.016695071
182	0x3de2bb70	0.11070907
183	0xbe19f26a	-0.1503388
184	0x3d61c66a	0.055120863
185	0x3caf0d24	0.02136857
186	0xbda69315	-0.081335224
187	0x3d43b7c4	0.047782674
188	0xbd4b6c69	-0.049663935
189	0x3dad925c	0.084751815
190	0xbcc5be0d	-0.024138475
191	0x3e270b06	0.16312799
192	0xbe219634	-0.15779954
193	0xbda0ba12	-0.0784799
194	0x3d14148c	0.036152408
195	0x3e0d46ba	0.13796511
196	0x3d538031	0.051635925
197	0x3e586db0	0.21135592
198	0x3da72f9f	0.0816338
199	0xbcb2dac1	-0.021832826
200	0xbd6b744f	-0.057483967
201	0x3e0d248a	0.1378347
202	0xbd73876e	-0.059455328
203	0xbdcfe749	-0.10151536
204	0x3b8d4111	0.004310735
205	0x3c224103	0.009903195
206	0x3e080aa2	0.13285306
207	0xbe047454	-0.12935
208	0xbe37dfba	-0.17956439
209	0x3e5bb255	0.21454747
210	0x3dd15273	0.10220804
211	0x3da284a1	0.07935453
212	0xbd9ed2c2	-0.077550426
213	0xbdded1e0	-0.10879874
214	0xbd90cde7	-0.07070523
215	0x3e1798fb	0.14804451
216	0x3d90592e	0.0704826
217	0x3dd4d507	0.10392194
218	0x3dda82d8	0.10669488
219	0x3d2e699b	0.042581182
220	0xbddf7f21	-0.1091292
221	0x3e46159a	0.19344178
222	0x3bd3ed4c	0.006467497
223	0x3d3635a8	0.044484764
224	0x3c09f584	0.008420352
225	0x3c9613fd	0.018320078
226	0xbcae722f	-0.021294681
227	0x3e104b65	0.1409126
228	0x3e117bab	0.14207332
229	0x3e05514d	0.13019295
230	0x3e02594e	0.1272938
231	0x3e215684	0.1575566
232	0xbe04dc1d	-0.12974592
233	0xbe22015c	-0.15820831
234	0xbde39dbd	-0.111140706
235	0xbe1dfee1	-0.1542926
236	0x3ccf23ba	0.02528559
237	0x3d1a4eae	0.03767269
238	0xbe174a27	-0.1477438
239	0x3e12e487	0.14344989
240	0xbe2693c4	-0.16267306
241	0x3e0c4436	0.13697895
242	0xbd4a27e3	-0.049354445
243	0xbd0847b3	-0.033271503
244	0xbbd9daca	-0.006648396
245	0x3d258e6c	0.040419027
246	0x3dfaffb8	0.12255806
247	0xbe041a2e	-0.12900612
248	0x3db00d90	0.08596337
249	0xbdc97c27	-0.09838133
250	0x3dec7448	0.115456164
251	0x3c006a57	0.007837853
252	0xbd8c3607	-0.068462424
253	0xbd71e0a9	-0.059052143
254	0x3d8f503e	0.06997727
255	0x3ddf3af5	0.10899917

arith.constant2 f4 [32, 1536]
0	0x3c6e6878	0.0145512745
1	0x3b90f93d	0.004424243
2	0x3cd61d49	0.026137011
3	0xbb12899e	-0.0022359858
4	0x3bc438b5	0.0059882053
5	0x3c0cab4b	0.008585761
6	0x3cb7e7a9	0.022449331
7	0x3c2d00ff	0.0105593195
8	0xbc3984f8	-0.011323206
9	0xbcb70b11	-0.022344144
10	0xbc35fece	-0.011108113
11	0x3cfd0c8a	0.030889768
12	0xbc8d27ca	-0.017230887
13	0xbbafb9f5	-0.005362744
14	0x3c19fd7f	0.009398817
15	0x3aba5ef5	0.0014218973
16	0x3d181b95	0.03713568
17	0xbbdd09ca	-0.0067455517
18	0x3cc3372e	0.023830023
19	0xbcb11bbb	-0.021619668
20	0x3c93bbce	0.018033888
21	0xbc31d154	-0.01085313
22	0x3cca41a4	0.024689503
23	0xbc6093de	-0.013707129
24	0x3c685a0c	0.014181625
25	0xbc72ea36	-0.014826348
26	0x3b862032	0.0040931934
27	0x3999bdb6	0.0002932378
28	0x3cda5712	0.026652846
29	0xbc22691f	-0.009912758
30	0x3bc8703a	0.006116894
31	0xbcb28967	-0.021794034
32	0x3c3bdf18	0.011466764
33	0xbc745e78	-0.014915101
34	0xbc9b32b5	-0.018945077
35	0x3b9259a6	0.0044662533
36	0x3c82acaf	0.015951483
37	0xbc4b566b	-0.01241074
38	0xbd03bb02	-0.032160766
39	0xbcbad3da	-0.022806097
40	0x3c93489e	0.017978963
41	0x3c6b090a	0.014345417
42	0x3c77f26d	0.015133482
43	0xbc0535bd	-0.008130488
44	0xbcf83af6	-0.030301552
45	0xbc85f1a1	-0.01635057
46	0x3ab023fa	0.0013438456
47	0xbb418754	-0.0029530125
48	0xbccd7aad	-0.02508291
49	0x3d36b1d9	0.044603202
50	0xbcb4536e	-0.022012439
51	0xbcb67aaf	-0.022275297
52	0xbceeeb30	-0.02916488
53	0xbadaf7d6	-0.0016705941
54	0xbccbbbda	-0.024869848
55	0xbbf90ff8	-0.0076007806
56	0x3c5863be	0.013207374
57	0xbce66029	-0.028122025
58	0xbc9ec211	-0.019379647
59	0xbbdbf47c	-0.0067124944
60	0x3c860956	0.016361874
61	0x3c6a508e	0.014301432
62	0x3c713356	0.014721712
63	0xbd0d7dab	-0.034543674
64	0x3b08b703	0.0020861037
65	0xba97b112	-0.0011573157
66	0xbc4e9c9e	-0.012610583
67	0x3c130255	0.008972724
68	0x3ac660ff	0.0015135108
69	0xbceb91b0	-0.028755993
70	0xbcef35b8	-0.02920042
71	0xbce53e81	-0.027983906
72	0x3c20d977	0.009817473
73	0x3be1ac4d	0.006886995
74	0xbc860d16	-0.016363662
75	0x3c6aef7c	0.014339324
76	0x3d13c690	0.036078036
77	0xbc98c701	-0.01864958
78	0x3cc3ac53	0.023885882
79	0xbc0e9c73	-0.008704293
80	0xbc202880	-0.009775281
81	0xbc13c881	-0.009019972
82	0x3c366fb3	0.01113503
83	0x3c7fd9d1	0.015615896
84	0x3c9b475f	0.01895493
85	0x3bbd3ec5	0.005775305
86	0xbc9e4ec3	-0.019324666
87	0x3c84d6e3	0.016215747
88	0xbd23b351	-0.03996593
89	0xbc221c69	-0.009894469
90	0x3c6c14f6	0.014409294
91	0x3c875886	0.016521703
92	0x3c92d624	0.017924376
93	0x394844f1	0.00019099169
94	0xbbebc297	-0.007194828
95	0x39660bbb	0.00021938879
96	0xbc48081b	-0.012208964
97	0x3c2b1f24	0.010444436
98	0xbc0c63cc	-0.008568715
99	0xbc6dc801	-0.014513017
100	0xbc9e9cbd	-0.019361848
101	0x3cb484e7	0.022036029
102	0x3c838c97	0.01605825
103	0x3c6fb9e4	0.014631722
104	0xbcae22b9	-0.021256791
105	0xbc105663	-0.008809659
106	0xbcb6ab2a	-0.022298414
107	0xbafa6d05	-0.0019105977
108	0xbcd16654	-0.02556149
109	0xbc26b2f0	-0.010174498
110	0xbca78d9c	-0.020453267
111	0xbc25ceb5	-0.010120084
112	0xbaaa2577	-0.0012981136
113	0x3c6f47f0	0.014604554
114	0xbc6d4b1e	-0.014483241
115	0x3c847586	0.01616932
116	0xbd000942	-0.03125883
117	0xbbe9585e	-0.00712113
118	0xbbc70739	-0.006073859
119	0xbcb312af	-0.021859495
120	0xbc538b5b	-0.012911643
121	0x3d051ba1	0.032497052
122	0xbc4104ba	-0.011780912
123	0xbcd64c3d	-0.0261594
124	0xbc6f4e7d	-0.014606115
125	0xbd0e24e8	-0.034703165
126	0xbcaf0898	-0.021366403
127	0x3c825b05	0.015912542
128	0xbcd15819	-0.025554704
129	0x3ca2e3bf	0.019883988
130	0xbcabc32a	-0.020967085
131	0x3b3144d0	0.0027049072
132	0xbca8c650	-0.020602375
133	0xbbce25ec	-0.0062911417
134	0xbbce9784	-0.006304683
135	0xbc934f03	-0.017982012
136	0x3cf56c36	0.029958826
137	0x3cd14435	0.025545219
138	0x3c6b0145	0.014343564
139	0xbc825e61	-0.015914144
140	0xbc4700a3	-0.012146148
141	0x3c6e1ad9	0.014532768
142	0x3c02ea30	0.007990405
143	0xbc4c068c	-0.012452733
144	0x3c850867	0.016239358
145	0x3c9b6c0b	0.018972417
146	0x3b97b5c2	0.0046298215
147	0x3ca29831	0.019847961
148	0x3c35903f	0.011081754
149	0x3ce9f74a	0.0285603
150	0xbc5196c2	-0.012792291
151	0xbb3c2f38	-0.0028714668
152	0xbcb42f63	-0.021995252
153	0x3c73c58b	0.014878641
154	0x3c94ca0a	0.018162746
155	0xbc2efd57	-0.010680518
156	0x3b9eef0d	0.0048502744
157	0xbcd5e36c	-0.02610942
158	0xbc3c2af9	-0.011484855
159	0xbc006d0a	-0.007838497
160	0x3c3a23d1	0.011361078
161	0xbca4f007	-0.020133985
162	0x3c99b611	0.018763574
163	0x3cb19b26	0.021680426
164	0xbb84e8eb	-0.0040560863
165	0xbca8d1ba	-0.020607818
166	0xbc94ee74	-0.01818011
167	0x3ca1556d	0.019694054
168	0xbc5c7fc1	-0.013458193
169	0xbc5672c2	-0.013088884
170	0xbc46d0e2	-0.0121347625
171	0x3c14cd4b	0.009082149
172	0x3c873bd5	0.016508022
173	0xbc31dd2f	-0.010855957
174	0x3c09bcdb	0.008406843
175	0xbc66f222	-0.014095815
176	0xbb2d4c38	-0.0026443135
177	0x3c556236	0.013023904
178	0xbca9c6ce	-0.02072468
179	0xbb3a26e3	-0.0028404526
180	0xbca7ad9b	-0.020468524
181	0xbcf59226	-0.029976916
182	0xbca1fadf	-0.019772945
183	0xbbd714b1	-0.006563746
184	0x3b09a128	0.0021000598
185	0x3c64fece	0.013976766
186	0x3cabb21e	0.020958956
187	0x3baec7a8	0.0053338595
188	0x3b9e4011	0.0048294147
189	0x3bf94d03	0.0076080575
190	0xbc85df28	-0.01634176
191	0x3bb41469	0.005495597
192	0xbc49857d	-0.0122998925
193	0x3cc0c29e	0.0235303
194	0xbcb55f23	-0.022140091
195	0x3a3d165d	0.000721311
196	0x3ceedcab	0.029157957
197	0xbb1215f8	-0.0022290926
198	0x3c3a106b	0.011356453
199	0xbbc18a3e	-0.0059063723
200	0xbc52858f	-0.012849226
201	0xbc75630c	-0.014977228
202	0x3c91664e	0.017748978
203	0x3cf7df68	0.030257896
204	0x3c0efc7e	0.008727191
205	0xbbdc9b78	-0.0067324005
206	0xbc73254f	-0.014840438
207	0xbb77e30e	-0.0037824544
208	0xbca1260d	-0.019671464
209	0x3cabe306	0.020982277
210	0x3ce1b1c7	0.027550591
211	0xbc761817	-0.015020392
212	0xbc7af4dd	-0.015317169
213	0x3c4671d7	0.0121121025
214	0xbc335a17	-0.010946772
215	0xbc27a1be	-0.010231433
216	0x3cb82fc1	0.022483708
217	0x3c113de2	0.008864852
218	0xbb873965	-0.004126715
219	0xbb08b976	-0.0020862496
220	0xbbf53d98	-0.007484149
221	0xbb8b0d19	-0.0042435047
222	0x3ca63564	0.02028913
223	0xbae58a80	-0.001751259
224	0x3b8d7236	0.0043165935
225	0xbcc8ea0a	-0.024525661
226	0xbbd446f5	-0.0064781853
227	0xbc69a032	-0.014259385
228	0x3c59bf91	0.013290302
229	0xba064748	-0.0005122316
230	0x3c1fc13e	0.009750662
231	0x3ac1d502	0.0014788213
232	0xbc3dabe6	-0.011576628
233	0x3c874b4e	0.0165154
234	0xbb94ec11	-0.004544743
235	0x3cb7ede1	0.022452297
236	0x3c61f5d1	0.013791517
237	0x3c80f733	0.015742874
238	0x3a01948e	0.0004943096
239	0xbbf6b0f1	-0.0075284173
240	0xbcc73be8	-0.024320558
241	0xbb22a1f5	-0.0024815772
242	0xbc70ad75	-0.014689793
243	0x3c843d8f	0.016142635
244	0xbca5f155	-0.020256678
245	0x3d0e8dc1	0.034803156
246	0x3c35111a	0.011051441
247	0xba609d9f	-0.0008568409
248	0x3bc0cb30	0.005883597
249	0xbc299a43	-0.01035172
250	0xbad68131	-0.0016365406
251	0xba91b5ca	-0.00111168
252	0x3c812f36	0.015769582
253	0xbcadf64f	-0.021235613
254	0x3ccbf910	0.024899036
255	0xbd0d8164	-0.034547225

model_8/tf.__operators__.add/AddV2/y f4 [32]
0	0x3cb0b74c	0.021571778
1	0xbbd7d514	-0.00658668
2	0xbc6a1f47	-0.014289684
3	0x3c85adc5	0.016318211
4	0x3ca50284	0.020142801
5	0x3ba76355	0.005108277
6	0x3c68a942	0.01420051
7	0x3cd154de	0.025553163
8	0x3c57a5f0	0.013162121
9	0x3c8094ac	0.015695892
10	0x3ae0eb1d	0.0017159913
11	0xbca2b5ad	-0.01986202
12	0x3c8b30fe	0.016991135
13	0x3c7bb924	0.015363965
14	0x3b972d39	0.0046135453
15	0x3c4e6db2	0.012599396
16	0xbbbd77dd	-0.005782111
17	0xbb199c21	-0.0023439007
18	0x3cdc81b1	0.02691731
19	0xbc4251a1	-0.011860282
20	0xbcb015ef	-0.021494834
21	0x3c839425	0.016061852
22	0xbc62a950	-0.013834313
23	0xbb98a9c4	-0.0046589095
24	0x3c5c27f8	0.013437264
25	0xbae931d6	-0.0017791342
26	0xba9ba3e3	-0.0011874404
27	0xbc31d0b6	-0.010852983
28	0xbbb3abc4	-0.0054831225
29	0xbc228079	-0.009918326
30	0x3a6eff2f	0.0009117005
31	0xbca4f54f	-0.020136504

model_8/tf.__operators__.add_1/AddV2/y f4 [32]
0	0x3e07d19d	0.13263555
1	0xbc8d5ffe	-0.017257687
2	0x3ccd6fd0	0.02507773
3	0xbc258794	-0.010103125
4	0x3daa985d	0.08329842
5	0xbdce2341	-0.10065318
6	0xbdaf1ef7	-0.08550828
7	0x3db8645f	0.09003519
8	0xbd2ed76d	-0.042685915
9	0xbd57abf9	-0.05265424
10	0xbdb51f16	-0.0884382
11	0x3c7816b3	0.015142131
12	0x3d014e66	0.031568907
13	0xbe01c3b8	-0.12672317
14	0xbdf8f005	-0.12155155
15	0xbdab73ee	-0.08371721
16	0x3e30e0f1	0.17273308
17	0xb9f9d5d2	-0.0004765229
18	0x3e20b83b	0.15695278
19	0xbd5cf0da	-0.05394063
20	0x3e1cb6ed	0.15304156
21	0x3d1f57ea	0.0389022
22	0xbd1b7607	-0.037954357
23	0xbe2c2a21	-0.16812946
24	0xbdf49567	-0.11942559
25	0xbdf75f97	-0.12078779
26	0xbd6ed779	-0.05831096
27	0xbdbbefe7	-0.09176617
28	0xbcf1b396	-0.029504579
29	0x3d5cfc7b	0.05395172
30	0xbe1bae1e	-0.15203139
31	0x3e121c6b	0.14268653

model_8/tf.math.add_2/Add/y f4 [1, 32]
0	0xbc1ef80e	-0.0097026955
1	0xbc6c778e	-0.014432801
2	0x3cade709	0.02122833
3	0xbc5adc3d	-0.013358173
4	0xbc671776	-0.014104715
5	0x3c46a04e	0.012123181
6	0xbc4b1c17	-0.012396834
7	0x3cb3ba12	0.021939311
8	0xbc6a0205	-0.014282708
9	0xbbb303b3	-0.0054630875
10	0x38076aa0	3.228581e-05
11	0xbd100420	-0.035160184
12	0xbc522cfc	-0.012828108
13	0x3cded52e	0.027201261
14	0xbc60b70a	-0.013715515
15	0xbc390d3b	-0.011294658
16	0x3bb10698	0.0054023974
17	0x3d0eb793	0.03484304
18	0x3c59745c	0.013272371
19	0x3bd27ee6	0.006423819
20	0x3a115ab8	0.0005544829
21	0xbbafb5d9	-0.005362254
22	0xbb7f509b	-0.0038957957
23	0xbb2aa7b6	-0.0026039905
24	0x3bc76f8c	0.0060862955
25	0xbc56f16d	-0.013119084
26	0xbc447eba	-0.011993105
27	0xbc82f40b	-0.01598551
28	0x3b3528e6	0.0027642786
29	0x3c09d5bc	0.008412775
30	0x3cc4d76d	0.024028504
31	0xbc8b04ff	-0.016970156

model_8/tf.math.add_5/Add/y f4 [1, 32]
0	0x3c57e9ac	0.01317827
1	0xbacf7dbb	-0.0015830317
2	0xbaf9eec4	-0.001906835
3	0x3d612c25	0.05497374
4	0xbd407e3d	-0.04699539
5	0x3c6f16c3	0.014592829
6	0x3e9a8bd9	0.3018482
7	0x3e913d15	0.28366914
8	0xbd525cc7	-0.05135801
9	0x3e917893	0.28412303
10	0x3d140856	0.036140762
11	0x3ea08460	0.31350994
12	0x3db40581	0.08790112
13	0x3c36371d	0.0111215385
14	0x3d5edb61	0.054408435
15	0xbadfc393	-0.0017071835
16	0x3ca04a4b	0.019566676
17	0x3e830ab2	0.25594097
18	0x3ea2052e	0.31644577
19	0x3ca07255	0.019585768
20	0x3ea4be24	0.32176316
21	0x3d6244a0	0.055241227
22	0x3e838c47	0.2569296
23	0x3caadb76	0.0208566
24	0xbc736233	-0.0148549555
25	0x3d46bd5c	0.04852043
26	0xbd202bdd	-0.03910433
27	0x3d81b19a	0.06332703
28	0x3cc26df6	0.023734074
29	0x3e7d706e	0.2474992
30	0x3d14f7dc	0.03636919
31	0x3cab947e	0.02094483

model_8/tf.math.multiply_10/Mul/y f4 [1, 32]
0	0x3f7ea6c7	0.9947323
1	0x3f7d02ec	0.98832583
2	0x3f81a2c3	1.0127796
3	0x3f7f7531	0.99788195
4	0x3f7eb52f	0.99495214
5	0x3f77c6e7	0.96787876
6	0x3f7db8aa	0.991099
7	0x3f8345a9	1.0255634
8	0x3f7e742f	0.9939603
9	0x3f7c8deb	0.9865405
10	0x3f809f69	1.0048648
11	0x3f7972ed	0.9744099
12	0x3f7f62b3	0.9975998
13	0x3f82f1cb	1.0230039
14	0x3f7f45a2	0.99715626
15	0x3f7f7923	0.99794215
16	0x3f81e56c	1.0148139
17	0x3f79a080	0.9751053
18	0x3f7b7f7a	0.9824139
19	0x3f805d10	1.00284
20	0x3f826ec1	1.019005
21	0x3f7ee883	0.99573535
22	0x3f7fba85	0.9989398
23	0x3f7cb61d	0.9871538
24	0x3f76d0b8	0.9641223
25	0x3f7e5257	0.9934439
26	0x3f7dba01	0.99111944
27	0x3f7cf5ea	0.98812735
28	0x3f81da18	1.0144682
29	0x3f7f5068	0.99732065
30	0x3f834c07	1.0257577
31	0x3f7ede5f	0.9955806

model_8/tf.math.multiply_22/Mul/y f4 [1, 32]
0	0x3f817e7f	1.0116729
1	0x3f7d3cc6	0.9892086
2	0x3f805a65	1.0027586
3	0x3f89ef6b	1.077619
4	0x3f79a210	0.9751291
5	0x3f81dd0f	1.0145587
6	0x3fab4229	1.3379565
7	0x3fa55af7	1.2918385
8	0x3f74344c	0.953923
9	0x3fa544ab	1.2911581
10	0x3f847a35	1.0349795
11	0x3faef4ce	1.3668458
12	0x3f89a9ea	1.0754979
13	0x3f805393	1.0025505
14	0x3f899beb	1.0750707
15	0x3f7dd43d	0.99151975
16	0x3f81370c	1.0094924
17	0x3f9e19e8	1.2351656
18	0x3fb035df	1.376644
19	0x3f81a7be	1.0129316
20	0x3fb19207	1.3872689
21	0x3f8a3077	1.079604
22	0x3f9ea2cd	1.2393433
23	0x3f842cfe	1.032623
24	0x3f806bb0	1.0032864
25	0x3f88230c	1.0635695
26	0x3f7a4baa	0.97771704
27	0x3f8c5eba	1.0966408
28	0x3f824537	1.0177373
29	0x3f9aa469	1.2081424
30	0x3f872828	1.055913
31	0x3f83278b	1.0246443
