models/gabriela/gabriela.tflite (tflite, 206976 bytes, 9 tensors)

arith.constant f4 [1, 32]
-0.022255821 -0.3687665 0.22760111 -0.32369646 0.06891031 0.09177525 0.115945995 0.06164769
0.053578664 0.29844913 -0.05340045 0.12705812 0.13226633 0.17279509 -0.33096427 -0.10112117
-0.35936677 -0.32680997 -0.3267544 0.021658309 -0.0421707 -0.3378027 -0.33528283 0.14460036
0.0454041 0.10860193 -0.3506874 0.14532448 -0.32817477 0.050587576 0.06530331 0.107669316
00000000: d751 b6bc f6ce bcbe 4410 693e 8bbb a5be
00000010: d920 8d3d aaf4 bb3d 1875 ed3d 4a82 7c3d
00000020: 4d75 5b3d 53ce 983e 6eba 5abd 861b 023e
00000030: d370 073e 32f1 303e 2674 a9be 9e18 cfbd
00000040: ecfe b7be a353 a7be 5a4c a7be c46c b13c
00000050: 2fbb 2cbd 7af4 acbe 31aa abbe 1e12 143e
00000060: a6f9 393d b06a de3d 4d8d b3be f1cf 143e
00000070: 8606 a8be eb34 4f3d bebd 853d bb81 dc3d

arith.constant1 f4 [32, 32]
-0.04041287 -0.07110643 0.038483556 -0.11270108 -0.13813134 0.14228697 0.1348724 -0.03284929
-0.12823549 0.03992107 0.05707479 0.14003867 -0.014535143 -0.1288767 0.12863901 0.10992683
0.07918597 -0.1391755 -0.029889042 -0.019606851 0.058261555 0.07598705 0.029418306 -0.13673246
-0.068931475 0.10003111 0.107282415 0.1398638 0.038373735 0.019948708 -0.10638049 0.10706597
0.07423294 0.023012765 0.09013615 0.13755281 0.16826013 -0.09883492 -0.11622858 0.123521134
-0.15896381 -0.026727421 0.08365975 0.1634766 0.017172424 0.11666925 0.131828 -0.105703734
-0.11290463 0.12048283 0.074612156 0.01096045 0.12959285 -0.010064807 -0.03571319 0.1334048
0.060242224 0.098064005 0.00869094 0.06621207 -0.051118705 -0.09416429 -0.095203534 -0.052097667
0.14147429 -0.03473307 -0.16208592 -0.1563125 -0.15624397 -0.12877367 0.08243785 0.066349804
0.10239393 0.16489142 0.16796514 -0.038316235 0.13267529 -0.09094737 0.15774806 0.17366815
-0.011876831 -0.1669845 -0.055956036 0.088968806 -0.08617702 0.11370814 0.034766085 -0.03410916
0.035004225 0.0956611 -0.10036434 0.16055179 -0.02293114 -0.028625311 0.15764998 0.014929526
0.12395848 0.15859815 0.10863482 0.03877112 0.20449726 0.13938177 0.028088821 0.14615814
-0.06957696 -0.16148676 -0.041972287 0.1500237 -0.054845024 0.011851178 -0.043383993 0.05103037
0.01002458 -0.034268286 -0.12990753 -0.07048837 0.16713369 0.027611358 0.13467668 0.02209293
0.13019624 0.14353082 0.036827803 0.07528927 -0.1534378 -0.0008666497 -0.14358775 0.03702617
0.014583175 0.038808465 0.14172795 0.053099945 -0.09116469 -0.010174414 -0.12604812 0.07843726
-0.02637678 0.046831515 0.040293865 -0.12347548 -0.08152845 0.14409372 0.09444243 0.04161041
0.11879047 -0.09687224 -0.09222884 0.11989092 -0.13500816 0.11260186 0.035501257 -0.062874265
-0.04763154 -0.019941077 -0.056931976 -0.07526199 0.06905706 0.026069919 0.1216731 -0.095515974
-0.08021361 -0.09598685 0.05313634 0.08874741 0.08397379 -0.13846323 -0.12917061 0.1606073
-0.08073855 0.04323 -0.04306019 -0.006191561 -0.13927764 -0.15432875 -0.025671132 0.12475641
0.15814917 -0.07868659 -0.042328294 0.07895989 0.09424327 0.17355402 -0.104794 -0.04894754
0.1214045 0.13555272 -0.1396337 0.04805148 -0.089498274 -0.09859378 0.046444457 -0.054226004
-0.12301785 -0.09868192 -0.013264125 -0.08363676 0.04610961 -0.12879081 0.16744818 0.18783082
0.104800366 -0.08921172 -0.17829502 0.0138211455 0.08911771 -0.14541805 -0.09477202 0.11317549
-0.13164626 -0.027024463 -0.072332494 -0.014875408 0.1275536 0.01789628 -0.053191863 0.07301316
0.09715897 -0.014794706 -0.071696684 0.14941394 0.112930596 -0.0856213 -0.07586284 -0.11700451
-0.13578926 -0.06883416 -0.13381071 0.04409383 -0.09381206 0.14346784 0.095085084 -0.14152096
0.008833011 0.07001005 0.08499949 -0.073168546 -0.066952735 -0.12591776 0.035716936 0.14578064
0.06183663 -0.10719892 0.01877696 -0.061940543 0.10022034 0.116552 0.060129106 -0.025071144
-0.06982495 -0.032638032 0.04701199 -0.07081316 0.26072353 -0.13044868 -0.012568574 0.13674028
00000000: f787 25bd 3fa0 91bd efa0 1d3d d3cf e6bd
00000010: 4d72 0dbe adb3 113e fe1b 0a3e fa8c 06bd
00000020: 2a50 03be 4784 233d 41c7 693d 4c66 0f3e
00000030: cf24 6ebc 41f8 03be f2b9 033e 5121 e13d
00000040: 412c a23d 0684 0ebe ddd9 f4bc 8c9e a0bc
00000050: aba3 6e3d 199f 9b3d a9fe f03c 9803 0cbe
00000060: f22b 8dbd 1cdd cc3d e2b6 db3d 7538 0f3e
00000070: c72d 1d3d 796b a33c 04de d9bd 6745 db3d
00000080: 7107 983d 4485 bc3c 4d99 b83d a5da 0c3e
00000090: 624c 2c3e f669 cabd 4009 eebd a6f8 fc3d
000000a0: 69c7 22be 77f3 dabc ce55 ab3d 6966 273e
000000b0: 2fad 8c3c 4af0 ee3d ebfd 063e 337b d8bd
000000c0: 8b3a e7bd b4bf f63d 42ce 983d 7693 333c
000000d0: fdb3 043e dce6 24bc fe47 12bd 459b 083e
000000e0: 8dc0 763d c8d5 c83d 7264 0e3c 329a 873d
000000f0: d961 51bd 35d9 c0bd 12fa c2bd 5d64 55bd
00000100: a3de 103e 4344 0ebd daf9 25be 6210 20be
00000110: 6bfe 1fbe 3fdd 03be 2dd5 a83d 68e2 873d
00000120: e9b3 d13d 4cd9 283e 0eff 2b3e 7cf1 1cbd
00000130: 08dc 073e 9d42 babd b588 213e 10d6 313e
00000140: 0a97 42bc fcfd 2abe 2832 65bd 4735 b63d
00000150: 947d b0bd d0df e83d e266 0e3d 0cb6 0bbd
00000160: 9760 0f3d f7e9 c33d d28b cdbd b067 243e
00000170: 16da bbbc a17f eabc ff6e 213e f89a 743c
00000180: f2dd fd3d 8e67 223e ef7b de3d 77ce 1e3d
00000190: bb67 513e 18ba 0e3e 871a e63c 7baa 153e
000001a0: 5d7e 8ebd c95c 25be 22eb 2bbd d09f 193e
000001b0: 2da5 60bd 712b 423c 6ab3 31bd 3905 513d
000001c0: 233e 243c e75c 0cbd 7b06 05be 355c 90bd
000001d0: 1825 2b3e 3731 e23c afe8 093e 3bfc b43c
000001e0: 2a52 053e bef9 123e c0d8 163d 4331 9a3d
000001f0: cc1e 1dbe e02f 63ba ab08 13be c1a8 173d
00000200: 45ee 6e3c a0f5 1e3d 2221 113e 547f 593d
00000210: 8eb4 babd 96b2 26bc c212 01be b7a3 a03d
00000220: 1e14 d8bc 67d2 3f3d 2e0b 253d b6e0 fcbd
00000230: 63f8 a6bd 4e8d 133e 086b c13d ad6f 2a3d
00000240: 6b48 f33d f464 c6bd 79e2 bcbd 5f89 f53d
00000250: 943f 0abe ce9b e63d c469 113d 39c4 80bd
00000260: 4a19 43bd 785b a3bc 8131 69bd f522 9abd
00000270: ca6d 8d3d 9590 d53c bf2f f93d e19d c3bd
00000280: 0847 a4bd c194 c4bd 7ea5 593d 34c1 b53d
00000290: 73fa ab3d 4ec9 0dbe 4d45 04be 3d76 243e
000002a0: 415a a5bd f111 313d e25f 30bd 94e2 cabb
000002b0: cc9e 0ebe 5b08 1ebe 444c d2bc 4a80 ff3d
000002c0: dbf1 213e 6f26 a1bd 6f60 2dbd b9b5 a13d
000002d0: 9e02 c13d 25b8 313e 3d9e d6bd 377d 48bd
000002e0: eca2 f83d 55ce 0a3e 23fc 0ebe a1d1 443d
000002f0: df4a b7bd 89eb c9bd 8b3c 3e3d 161c 5ebd
00000300: c8f0 fbbd bf19 cabd c651 59bc c049 abbd
00000310: 6edd 3c3d bde1 03be 8977 2b3e b956 403e
00000320: 93a1 d63d a2b4 b6bd f892 36be 1672 623c
00000330: 5983 b63d 78e8 14be d517 c2bd 8dc8 e73d
00000340: 47ce 06be 6862 ddbc 0f23 94bd fcb7 73bc
00000350: 699d 023e 389b 923c b6df 59bd ec87 953d
00000360: 48fb c63d 7f65 72bc b6d5 92bd f8ff 183e
00000370: 2848 e73d 385a afbd fa5d 9bbd 0fa0 efbd
00000380: 570c 0bbe edf8 8cbd ad05 09be bb9b 343d
00000390: 8a20 c0bd 3ce9 123e f8bb c23d dfea 10be
000003a0: 55b8 103c 6e61 8f3d 3614 ae3d 64d9 95bd
000003b0: 841e 89bd 96f0 00be ec4b 123d 8547 153e
000003c0: 6848 7d3d 1b8b dbbd 24d2 993c 5eb5 7dbd
000003d0: 5240 cd3d d1b2 ee3d f049 763d 0062 cdbc
000003e0: 6200 8fbd 75af 05bd a58f 403d 7d06 91bd
000003f0: 8e7d 853e 5794 05be 6cec 4dbc a505 0c3e

arith.constant2 f4 [32, 1536]
0.008263141 -0.0026829918 0.01694676 -0.04435056 0.020544387 -0.020726994 -0.01506838 -0.030684343
-0.0038052732 0.004812784 0.015437697 0.027339065 -0.011602189 -0.016931593 0.023598496 0.004685079
0.012954564 0.022062404 -0.0006582209 0.0064360187 -0.0057517476 0.009207597 0.027833475 -0.03804679
-0.011806594 0.0093859425 0.0064450074 -0.00017391864 0.019883076 -0.034908824 0.025887785 0.0061963187
0.014568703 -0.017700747 0.010526367 0.0014585295 0.016215606 0.0050466824 -0.015157945 -0.030608281
0.004094829 -0.03174208 -0.016092919 0.00088651065 0.00438982 0.025112381 0.034280732 -0.03878235
-0.020517733 -0.002079925 -0.0123868175 -0.028933696 0.019003605 0.06644203 -0.016534878 -0.009085777
0.019190883 -0.0055105886 0.011407279 0.0055089537 -0.0161817 -0.03797896 0.005221 -0.010153131
0.019631704 0.011287672 0.014186457 -0.011078726 -0.007475198 0.0077595804 -0.018279415 -0.0037661039
0.023122888 0.004378846 -0.01647162 -0.0070838416 0.032526765 -0.008970771 0.028257048 0.017255658
0.009704898 -0.0059626326 -0.031783074 0.021572845 -0.022710536 -0.026291585 0.010378156 -0.007643459
0.021591637 0.007581027 0.0013029176 0.016873216 -0.018758811 -0.0031648208 -0.033496816 0.0016347875
0.03404774 -0.0009641237 0.0032831335 -0.055609748 0.0033122667 -0.03658398 0.016673248 -0.0029906528
0.00090220803 -0.011504271 -0.014083421 0.022026258 -0.037183773 -0.016796406 -0.022807667 -0.008555198
-0.011502741 0.028097099 0.010891461 0.021443078 -0.019443039 0.010242416 0.022827737 -0.050301462
-0.0025772715 -0.003677438 0.027858654 -0.001185509 0.023425264 -0.013878532 0.018645655 -0.002783692
0.013729537 -0.0037357272 -0.0022284435 -0.013056477 0.018219545 0.012708133 -0.055267744 -0.011105991
-0.0036847328 0.026773678 -0.009545013 0.0011304297 0.013806014 0.005075886 0.022314964 0.0046261805
-0.002991559 -0.0023543674 -0.01862496 0.014423421 -0.00917233 0.048754126 0.015160531 0.020233173
0.001975009 0.013942138 -0.013897994 -0.00073782983 0.009230814 -0.030169085 -0.008650037 0.00022988331
-6.778817e-05 -0.029969562 0.03833838 -0.00305402 0.014016884 0.01231852 -0.016269047 -0.015859207
0.004360674 0.0140713 0.0007637821 -0.010622098 0.03635997 0.0037759433 0.025675252 0.023598814
0.014808309 -0.026456596 0.019702284 0.026909212 0.018714393 0.004289696 0.0071175313 0.027140046
0.011971686 -0.023427865 0.0036307117 -0.0059647574 0.015520254 0.025674757 0.011662421 -0.007195672
0.023666998 -0.02516435 0.02004978 -0.05042846 0.0342557 -0.015440667 0.022070553 0.0103005795
-0.0125100585 -0.026088852 -0.012044229 0.00042028583 -0.053637423 0.020245671 -0.0012957318 -0.032485515
-0.03197013 0.005264438 0.028477762 0.0025641487 -0.020096194 0.0024453583 0.03011049 -0.008928123
0.015857322 -0.0063324873 -0.017607756 0.01922798 -0.023729973 -0.008240996 0.038894657 -0.010368285
-0.016496137 -0.026208008 0.0042330422 5.1733954e-05 -0.024577286 -0.023170523 -0.03415894 0.0090349475
-0.007072139 -0.03318844 -0.007046515 -0.0153672965 -0.0112394225 -0.019453285 0.010456588 -0.02263606
-0.020263433 0.015806925 -0.017795213 0.009838811 0.0064432174 0.022085896 0.028099759 -0.00032032336
0.00012303001 0.009416521 -0.003810093 0.0040048566 -0.0011689238 -0.013131438 0.027734833 0.014809595
00000000: 2062 073c 22d5 2fbb eed3 8a3c efa8 35bd
00000010: b44c a83c a8cb a9bc 5ee1 76bc bb5d fbbc
00000020: e461 79bb 8fb4 9d3b 65ee 7c3c 2df6 df3c
00000030: 1c17 3ebc 20b4 8abc a251 c13c 4b85 993b
00000040: 613f 543c 37bc b43c 758c 2cba 3de5 d23b
00000050: 2879 bcbb 76db 163c 0703 e43c f3d6 1bbd
00000060: 7270 41bc 7fc7 193c a430 d33b ee5d 36b9
00000070: d5e1 a23c 8efc 0ebd 9f12 d43c 7d0a cb3b
00000080: 92b1 6e3c 2801 91bc c976 2c3c 212c bf3a
00000090: 97d6 843c a45e a53b 0859 78bc 38be fabc
000000a0: ea2d 863b fc03 02bd 4cd5 83bc b964 683a
000000b0: 7bd8 8f3b 7bb8 cd3c f469 0c3d 3eda 1ebd
000000c0: ce14 a8bc 5a4f 08bb 14f2 4abc 5c06 edbc
000000d0: 73ad 9b3c c212 883d 2774 87bc 83dc 14bc
000000e0: 3336 9d3c 2b92 b4bb 99e5 3a3c 7484 b43b
000000f0: 7c8f 84bc d38f 1bbd ec14 ab3b 5159 26bc
00000100: abd2 a03c eeef 383c 506e 683c 8b83 35bc
00000110: 81f2 f4bb 1444 fe3b b6be 95bc bdd0 76bb
00000120: 366c bd3c 6c7c 8f3b 7eef 86bc 921f e8bb
00000130: c93a 053d 24fa 12bc 537b e73c bd5b 8d3c
00000140: 4b01 1f3c 3062 c3bb f82e 02bd 89b9 b03c
00000150: 720b babc 7361 d7bc 2409 2a3c fb75 fabb
00000160: f2e0 b03c 446a f83b a9c6 aa3a b339 8a3c
00000170: 14ac 99bc e268 4fbb f533 09bd 5e46 d63a
00000180: a575 0b3d 3fbd 7cba d729 573b 0cc7 63bd
00000190: 9d12 593b 15d9 15bd 5696 883c d4fe 43bb
000001a0: 2882 6c3a 697c 3cbc 26be 66bc 6970 b43c
000001b0: 034e 18bd 9e98 89bc 25d7 babc 1a2b 0cbc
000001c0: fe75 3cbc e32b e63c 1972 323c 65a9 af3c
000001d0: 0247 9fbc cecf 273c 3c01 bb3c e808 4ebd
000001e0: 71e7 28bb 2c01 71bb d537 e43c 1563 9bba
000001f0: 57e6 bf3c c862 63bc c6be 983c 9a6e 36bb
00000200: daf1 603c 1ad3 74bb 140b 12bb d5ea 55bc
00000210: 2841 953c c635 503c 6e60 62bd e7f5 35bc
00000220: 8f7b 71bb 7954 db3c b062 1cbc ed2a 943a
00000230: 9f32 623c 9e53 a63b dfcd b63c 3797 973b
00000240: 080e 44bb bb4b 1abb 5f93 98bc 3650 6c3c
00000250: 8a47 16bc 68b2 473d e063 783c 0ac0 a53c
00000260: 276f 013b 916d 643c 69b4 63bc ec6a 41ba
00000270: d73c 173c 2825 f7bc e3b8 0dbc d50c 7139
00000280: 7f29 8eb8 ba82 f5bc b508 1d3d f425 48bb
00000290: 13a7 653c 9ed3 493c aa46 85bc 2beb 81bc
000002a0: fce3 8e3b 4f8b 663c 8d38 483a 4f08 2ebc
000002b0: 31ee 143d d175 773b e854 d23c 4d52 c13c
000002c0: 8d9e 723c 81bb d8bc af66 a13c b570 dc3c
000002d0: ed4e 993c 9490 8c3b 2e3a e93b cd54 de3c
000002e0: e424 443c cbeb bfbc 3cf1 6d3b 0374 c3bb
000002f0: aa48 7e3c de53 d23c bd13 3f3c acc9 ebbb
00000300: 4be1 c13c 7825 cebc 703f a43c 138e 4ebd
00000310: b44f 0c3d dafa 7cbc 4ecd b43c c3c3 283c
00000320: fdf6 4cbc 4ab8 d5bc 2855 45bc cf59 dc39
00000330: eab2 5bbd 40da a53c 8bd5 a9ba 880f 05bd
00000340: 1cf3 02bd 4f81 ac3b 324a e93c 470b 283b
00000350: c6a0 a4bc 4e42 203b 46aa f63c 4347 12bc
00000360: 37e7 813c c180 cfbb 243e 90bc ff83 9d3c
00000370: 5c65 c2bc 3e05 07bc 0150 1f3d bddf 29bc
00000380: e822 87bc 2db2 d6bc 55b5 8a3b e9fc 5838
00000390: 4e56 c9bc 1cd0 bdbc 3fea 0bbd 5107 143c
000003a0: 67bd e7bb 9af0 07bd 74e6 e6bb 1dc7 7bbc
000003b0: 8e25 38bc 7f5c 9fbc 1c52 2b3c 426f b9bc
000003c0: 80ff a5bc 867d 813c 44c7 91bc f732 213c
000003d0: a021 d33b 7bed b43c 7731 e63c 13f1 a7b9
000003e0: 9e01 0139 c047 1a3c c1b2 79bb 2c3b 833b
000003f0: 9336 99ba 3e25 57bc 2934 e33c f2a3 723c

model_8/tf.__operators__.add/AddV2/y f4 [32]
0.00021087867 0.00022088685 -0.019579178 -0.0076509425 0.024800375 0.018658537 0.028986907 -0.017738411
-0.019531365 0.010192828 -0.0040142965 -0.007772147 0.013788666 -0.0072451984 0.0138764605 -0.01614834
0.013656076 -0.0061081396 -0.0038220177 -0.028088255 -0.008945467 -0.0009315248 -0.017221918 -0.022398056
0.01816828 -0.005111406 -0.020602368 -0.018469822 -0.007844145 -0.007902926 -0.016701343 -0.028650958
00000000: 501f 5d39 dd9d 6739 8364 a0bc c2b4 fabb
00000010: 282a cb3c cad9 983c f375 ed3c 2550 91bc
00000020: 3e00 a0bc d2ff 263c 5c8a 83bb 7fad febb
00000030: dbe9 613c 2169 edbb 185a 633c 8649 84bc
00000040: bcbd 5f3c ca26 c8bb d17a 7abb 5719 e6bc
00000050: 0290 12bc 9231 74ba fb14 8dbc 217c b7bc
00000060: a5d5 943c 957d a7bb 4cc6 a8bc 064e 97bc
00000070: bb84 00bc 467b 01bc 41d1 88bc 6ab5 eabc

model_8/tf.__operators__.add_1/AddV2/y f4 [32]
-0.006700528 -0.04476149 -0.110654764 -0.05093583 -0.061319474 0.15853675 -0.076553315 0.1189918
0.07758568 -0.090553045 0.02919121 0.057231613 0.18674214 0.04554283 0.110459864 0.08230965
0.13141549 0.04142516 -0.13847429 0.108266585 0.09179685 -0.044400617 0.026438056 -0.010070484
-0.08185217 0.02566471 -0.051435117 0.04447935 0.08855027 0.051762108 0.16267699 -0.07824497
00000000: 1a90 dbbb d357 37bd f79e e2bd 17a2 50bd
00000010: 212a 7bbd 7557 223e fcc7 9cbd f9b1 f33d
00000020: 3ee5 9e3d e073 b9bd 6822 ef3c b26b 6a3d
00000030: 5539 3f3e 1e8b 3a3d c838 e23d f691 a83d
00000040: c891 063e 6ead 293d 34cc 0dbe dfba dd3d
00000050: fdff bb3d 6cdd 35bd 9f94 d83c acfe 24bc
00000060: 1ca2 a7bd cc3e d23c a1ad 52bd fb2f 363d
00000070: d859 b53d 8104 543d cc94 263e e63e a0bd

model_8/tf.math.add_2/Add/y f4 [1, 32]
0.016066113 0.0072295456 -0.017092315 0.016507078 0.026173193 -0.01649244 0.042784933 0.0011201195
0.010308734 -0.012998925 -0.0078191245 0.00036038377 0.010765431 0.016491853 0.024904668 0.01875805
-0.0047889357 -0.018663304 -0.032247704 -0.00054798444 0.022343729 -0.009141231 0.0014909761 0.01446143
-0.0027225304 0.008561208 -0.004363903 0.0038878054 -0.015794756 0.027458714 -0.009919471 -0.012113437
00000000: 159d 833c d3e5 ec3b 2f05 8cbc da39 873c
00000010: 2a69 d63c 271b 87bc 413f 2f3d f9d0 923a
00000020: f7e5 283c 71f9 54bc c91b 00bc e4f1 bc39
00000030: 7e61 303c ec19 873c e004 cc3c 7baa 993c
00000040: 81ec 9cbb c9e3 98bc 2b16 04bd 9da6 0fba
00000050: 320a b73c 1ac5 15bc db6c c33a a2ef 6c3c
00000060: 7b6c 32bb 4f44 0c3c 12ff 8ebb 8dca 7e3b
00000070: 0164 81bc 19f1 e03c 4785 22bc 7077 46bc

model_8/tf.math.add_5/Add/y f4 [1, 32]
0.0021357548 0.22791308 0.043187905 0.2568821 0.018047715 0.002615148 0.03603717 0.034688722
0.0076849726 0.1218809 -0.03458455 0.005222433 0.055592805 0.005548902 0.2414671 -0.056249116
0.23445758 0.26831004 0.24962664 -0.0008328165 -0.04394619 0.23631984 0.26767188 0.00014786287
0.017859787 0.027597062 0.23500566 0.04418508 0.22892763 -0.023867216 0.033111192 0.049461484
00000000: 05f8 0b3b 0c62 693e cde5 303d 0d86 833e
00000010: cdd8 933c e762 2b3b b69b 133d c315 0e3d
00000020: 39d2 fb3b b19c f93d 87a8 0dbd f120 ab3b
00000030: 48b5 633d 90d3 b53b 2743 773e 7965 66bd
00000040: a615 703e ef5f 893e 209e 7f3e 5f51 5aba
00000050: ec00 34bd d4fd 713e 4a0c 893e a30b 1b39
00000060: b04e 923c 3c13 e23c 53a5 703e 6afb 343d
00000070: 016c 6a3e 2e85 c3bc 9a9f 073d 2098 4a3d

model_8/tf.math.multiply_10/Mul/y f4 [1, 32]
1.0081155 0.9846915 0.9972257 0.98596 1.0316998 0.99516875 1.0282987 0.9956959
0.96777177 0.98925006 0.9952622 0.9771129 1.0152107 1.0173398 1.0056041 0.97973996
0.9938245 0.99429107 0.9899458 0.9842702 0.99727994 1.0208817 0.9977489 0.99783
0.9997503 0.9723544 0.99107754 0.96299976 1.0666392 1.011674 0.97489893 0.99155694
00000000: ee09 813f be14 7c3f 2f4a 7f3f e067 7c3f
00000010: bd0e 843f 61c3 7e3f 4b9f 833f ede5 7e3f
00000020: e4bf 773f 7e3f 7d3f 81c9 7e3f 1224 7a3f
00000030: 6df2 813f 3138 823f a3b7 803f 3dd0 7a3f
00000040: 486b 7e3f dc89 7e3f 176d 7d3f 22f9 7b3f
00000050: bd4d 7f3f 40ac 823f 796c 7f3f c971 7f3f
00000060: a3ef 7f3f 38ec 783f 42b7 7d3f 2787 763f
00000070: a287 883f 897e 813f fa92 793f add6 7d3f

model_8/tf.math.multiply_22/Mul/y f4 [1, 32]
0.9983939 1.2198879 1.0923963 1.2810978 1.0344396 1.0008763 1.0408987 1.060462
1.0097656 1.1826806 0.96327484 1.0023489 1.0533438 1.0177902 1.2450142 0.96327114
1.2367606 1.314473 1.2651861 1.0058202 0.9617416 1.2307364 1.3115904 1.0018226
1.0320565 1.0437922 1.23036 1.0821466 1.200755 0.9763768 1.0447453 1.0386868
00000000: be96 7f3f 4925 9c3f a4d3 8b3f 03fb a33f
00000010: 8468 843f b71c 803f 2b3c 853f 38bd 873f
00000020: 0040 813f 1462 973f 2e99 763f f84c 803f
00000030: f8d3 863f f346 823f a05c 9f3f f098 763f
00000040: 2c4e 9e3f a740 a83f 9ef1 a13f b7be 803f
00000050: b334 763f c588 9d3f 32e2 a73f b93b 803f
00000060: 6d1a 843f fc9a 853f 707c 9d3f c883 8a3f
00000070: 57b2 993f d4f3 793f 37ba 853f b0f3 843f
